…
e, show_layer_names=True, rankdir='HB').create(prog='dot', format='svg'))\n\n\n\n\nWe can see that in the Merge layer, we take the dot product of the user and the item embeddings to obtain the rating.\nWe can also summarise our model as follows:\n\nmodel.summary()\n\n__________________________________________________________________________________________________\nLayer (type)                    Output Shape         Param #     Connected to                     \n==================================================================================================\nItem (InputLayer)               (None, 1)            0                                            \n__________________________________________________________________________________________________\nUser (InputLayer)               (None, 1)            0                                            \n__________________________________________________________________________________________________\nMovie-Embedding (Embedding)     (None, 1, 3)         5049        Item[0][0]                       \n__________________________________________________________________________________________________\nUser-Embedding (Embedding)      (None, 1, 3)         2832        User[0][0]                       \n__________________________________________________________________________________________________\nFlattenMovies (Flatten)         (None, 3)            0           Movie-Embedding[0][0]            \n__________________________________________________________________________________________________\nFlattenUsers (Flatten)          (None, 3)            0           User-Embedding[0][0]             \n__________________________________________________________________________________________________\nDotProduct (Merge)              (None, 1)            0           FlattenMovies[0][0]              \n                                                                 FlattenUsers[0][0]               \n==================================================================================================\nTotal params: 7,881\nTrainable params: 7,881\nNon-trainable params: 0\n___________________________________________________________________________________
…
n\n\n\nIt should be noted that we use a different number of embeddings for user (3) and items (5)! These combine to form a vector of length (5+3 = 8), which is then fed into the neural network. We also add a dropout layer to prevent overfitting!\n\nmodel.summary()\n\n__________________________________________________________________________________________________\nLayer (type)                    Output Shape         Param #     Connected to                     \n==================================================================================================\nItem (InputLayer)               (None, 1)            0                                            \n__________________________________________________________________________________________________\nUser (InputLayer)               (None, 1)            0                                            \n__________________________________________________________________________________________________\nMovie-Embedding (Embedding)     (None, 1, 8)         13464       Item[0][0]                       \n__________________________________________________________________________________________________\nUser-Embedding (Embedding)      (None, 1, 5)         4720        User[0][0]                       \n__________________________________________________________________________________________________\nFlattenMovies (Flatten)         (None, 8)            0           Movie-Embedding[0][0]            \n__________________________________________________________________________________________________\nFlattenUsers (Flatten)          (None, 5)            0           User-Embedding[0][0]             \n__________________________________________________________________________________________________\ndropout_1 (Dropout)             (None, 8)            0           FlattenMovies[0][0]              \n__________________________________________________________________________________________________\ndropout_2 (Dropout)             (None, 5)            0           FlattenUsers[0][0]               \n__________________________________________________________________________________________________\nConcat (Merge)                  (None, 13)           0           dropout_1[0][0]                  \n                                                                 dropout_2[0][0]                  \n__________________________________________________________________________________________________\nFullyConnected-1 (Dense)        (None, 100)          1400        Concat[0][0]                     \n__________________________________________________________________________________________________\nFullyConnected-2 (Dense)        (None, 50)           5050        FullyConnected-1[0][0]           \n__________________________________________________________________________________________________\nFullyConnected-3 (Dense)        (None, 20)           1020        FullyConnected-2[0][0]           \n__________________________________________________________________________________________________\nActivation (Dense)              (None, 1)            21          FullyConnected-3[0][0]           \n==================================================================================================\nTotal params: 25,675\nTrainable params: 25,675\nNon-trainable params: 0\n__________________________________________________________________________________________________\n\n\nWe can see that the number of parameters is more than what we had in the Matri
…
s_utils import model_to_dot\nSVG(model_to_dot(model,  show_shapes=False, show_layer_names=True, rankdir='HB').create(prog='dot', format='svg'))\n\n\n\n\nSo, it wasn’t very complicated to set up. Courtesy Keras, we can do even more complex stuff!\n\nmodel.summary()\n\n__________________________________________________________________________________________________\nLayer (type)                    Output Shape         Param #     Connected to                     \n==================================================================================================\nItem (InputLayer)               (None, 1)            0                                            \n__________________________________________________________________________________________________\nUser (InputLayer)               (None, 1)            0                                            \n__________________________________________________________________________________________________\nMovie-Embedding-MLP (Embedding) (None, 1, 10)        16830       Item[0][0]                       \n__________________________________________________________________________________________________\nUser-Embedding-MLP (Embedding)  (None, 1, 8)         7552        User[0][0]                       \n__________________________________________________________________________________________________\nFlattenMovies-MLP (Flatten)     (None, 10)           0           Movie-Embedding-MLP[0][0]        \n__________________________________________________________________________________________________\nFlattenUsers-MLP (Flatten)      (None, 8)            0           User-Embedding-MLP[0][0]         \n__________________________________________________________________________________________________\ndropout_1 (Dropout)             (None, 10)           0           FlattenMovies-MLP[0][0]          \n__________________________________________________________________________________________________\ndropout_3 (Dropout)             (None, 8)            0           FlattenUsers-MLP[0][0]           \n__________________________________________________________________________________________________\nConcat (Merge)                  (None, 18)           0           dropout_1[0][0]                  \n                                                                 dropout_3[0][0]                  \n__________________________________________________________________________________________________\ndropout_5 (Dropout)             (None, 18)           0           Concat[0][0]                     \n__________________________________________________________________________________________________\nFullyConnected (Dense)          (None, 200)          3800        dropout_5[0][0]                  \n__________________________________________________________________________________________________\nBatch (BatchNormalization)      (None, 200)          800         FullyConnected[0][0]             \n__________________________________________________________________________________________________\nDropout-1 (Dropout)             (None, 200)          0           Batch[0][0]                      \n__________________________________________________________________________________________________\nFullyConnected-1 (Dense)        (None, 100)          20100       Dropout-1[0][0]                  \n__________________________________________________________________________________________________\nBatch-2 (BatchNormalization)    (None, 100)          400         FullyConnected-1[0][0]           \n__________________________________________________________________________________________________\nMovie-Embedding-MF (Embedding)  (None, 1, 3)         5049        Item[0][0]                       \n__________________________________________________________________________________________________\nUser-Embedding-MF (Embedding)   (None, 1, 3)         2832        User[0][0]                       \n__________________________________________________________________________________________________\nDropout-2 (Dropout)             (None, 100)          0           Batch-2[0][0]                    \n__________________________________________________________________________________________________\nFlattenMovies-MF (Flatten)      (None, 3)            0           Movie-Embedding-MF[0][0]         \n__________________________________________________________________________________________________\nFlattenUsers-MF (Flatten)       (None, 3)            0           User-Embedding-MF[0][0]          \n__________________________________________________________________________________________________\nFullyConnected-2 (Dense)        (None, 50)           5050        Dropout-2[0][0]                  \n__________________________________________________________________________________________________\ndropout_2 (Dropout)             (None, 3)            0           FlattenMovies-MF[0][0]           \n__________________________________________________________________________________________________\ndropout_4 (Dropout)             (None, 3)            0           FlattenUsers-MF[0][0]            \n__________________________________________________________________________________________________\nFullyConnected-3 (Dense)        (None, 20)           1020        FullyConnected-2[0][0]           \n__________________________________________________________________________________________________\nDot (Merge)                     (None, 1)            0           dropout_2[0][0]                  \n                                                                 dropout_4[0][0]                  \n__________________________________________________________________________________________________\nActivation (Dense)              (None, 1)            21          FullyConnected-3[0][0]           \n__________________________________________________________________________________________________\nConcat-MF-MLP (Merge)           (None, 2)            0           Dot[0][0]                        \n                                                                 Activation[0][0]                 \n__________________________________________________________________________________________________\nCombine-MF-MLP (Dense)          (None, 100)          300         Concat-MF-MLP[0][0]              \n__________________________________________________________________________________________________\nFullyConnected-4 (Dense)        (None, 100)          10100       Combine-MF-MLP[0][0]             \n__________________________________________________________________________________________________\nPrediction (Dense)              (None, 1)            101         FullyConnected-4[0][0]           \n==================================================================================================\nTotal params: 73,955\nTrainable params: 73,355\nNon-trainable params: 600\n__________________________________________________________________________________________________\n\n\nWe can see that the number of parameters is more than what we had in the Matr
…
